2025-04-15 11:20:06,196 - INFO - Training model started .. 
2025-04-15 11:20:06,196 - INFO - Training configuration:
2025-04-15 11:20:06,196 - INFO -   num_epochs     = 40
2025-04-15 11:20:06,196 - INFO -   batch_size     = 32
2025-04-15 11:20:06,196 - INFO -   hidden_units   = 30
2025-04-15 11:20:06,196 - INFO -   learning_rate  = 0.0001
2025-04-15 11:20:06,545 - INFO - Number of classes = 10
2025-04-15 11:20:06,545 - INFO - Model type: ModelType.TINY_VGG
2025-04-15 11:20:06,545 - INFO - Model configuration: 
TinyVGG(
  (conv_block_1): Sequential(
    (0): Conv2d(3, 30, kernel_size=(3, 3), stride=(1, 1))
    (1): ReLU()
    (2): Conv2d(30, 30, kernel_size=(3, 3), stride=(1, 1))
    (3): ReLU()
    (4): MaxPool2d(kernel_size=2, stride=2, padding=0, dilation=1, ceil_mode=False)
  )
  (conv_block_2): Sequential(
    (0): Conv2d(30, 30, kernel_size=(3, 3), stride=(1, 1))
    (1): ReLU()
    (2): Conv2d(30, 30, kernel_size=(3, 3), stride=(1, 1))
    (3): ReLU()
    (4): MaxPool2d(kernel_size=2, stride=2, padding=0, dilation=1, ceil_mode=False)
  )
  (classifier): Sequential(
    (0): Flatten(start_dim=1, end_dim=-1)
    (1): Linear(in_features=5070, out_features=10, bias=True)
  )
)
2025-04-15 11:21:58,077 - INFO - Training model started .. 
2025-04-15 11:21:58,077 - INFO - Training configuration:
2025-04-15 11:21:58,077 - INFO -   num_epochs     = 40
2025-04-15 11:21:58,077 - INFO -   batch_size     = 32
2025-04-15 11:21:58,077 - INFO -   hidden_units   = 30
2025-04-15 11:21:58,077 - INFO -   learning_rate  = 0.0001
2025-04-15 11:21:58,350 - INFO - Number of classes = 10
2025-04-15 11:21:58,350 - INFO - Model type: ModelType.TINY_VGG
2025-04-15 11:21:58,350 - INFO - Model configuration: 
TinyVGG(
  (conv_block_1): Sequential(
    (0): Conv2d(3, 30, kernel_size=(3, 3), stride=(1, 1))
    (1): ReLU()
    (2): Conv2d(30, 30, kernel_size=(3, 3), stride=(1, 1))
    (3): ReLU()
    (4): MaxPool2d(kernel_size=2, stride=2, padding=0, dilation=1, ceil_mode=False)
  )
  (conv_block_2): Sequential(
    (0): Conv2d(30, 30, kernel_size=(3, 3), stride=(1, 1))
    (1): ReLU()
    (2): Conv2d(30, 30, kernel_size=(3, 3), stride=(1, 1))
    (3): ReLU()
    (4): MaxPool2d(kernel_size=2, stride=2, padding=0, dilation=1, ceil_mode=False)
  )
  (classifier): Sequential(
    (0): Flatten(start_dim=1, end_dim=-1)
    (1): Linear(in_features=5070, out_features=10, bias=True)
  )
)
2025-04-15 11:22:41,950 - INFO - Epoch: 1 | train_loss: 2.0991 | train_acc: 0.2467 | test_loss: 1.9422 | test_acc: 0.3146
2025-04-15 11:23:25,181 - INFO - Epoch: 2 | train_loss: 1.8565 | train_acc: 0.3543 | test_loss: 1.7891 | test_acc: 0.3808
2025-04-15 11:24:08,010 - INFO - Epoch: 3 | train_loss: 1.7399 | train_acc: 0.3982 | test_loss: 1.7155 | test_acc: 0.4048
…
